36/proj3/LR_model.npy (npy, 38640 bytes, 1 tensors)

array f4 [2, 4814]
000000 4f 12 6b 3c 2a 16 e6 3c 1f 21 81 bc 03 15 b0 bd
       0.014347627 0.02808674 -0.015762864 -0.08597758
000010 11 b3 1e 3d 0a f2 dc bc fc 25 0e bd c7 0e 96 bc
       0.03874499 -0.026970882 -0.034704193 -0.018317593
000020 9b 4e b6 3c fe 3e 09 3d 4d 7e 2d 3d 87 e8 ce 3c
       0.022254279 0.03350734 0.042356778 0.025257362
000030 c7 a5 ad bb 5e 76 e5 3c 12 a2 e2 3c ef cf 03 3d
       -0.005299303 0.028010543 0.027665172 0.032180723
000040 e0 01 bc 3c 69 16 17 3d 2d 6c 5c bd 27 47 b6 bc
       0.022950113 0.036886606 -0.053814102 -0.022250725
000050 8a f5 a9 bc 85 07 ad 3d 2f 75 67 3b 57 ee e6 bc
       -0.020746965 0.084487 0.003531765 -0.028189821
000060 b1 ae fd 3c 71 fc 37 bd e5 67 3b bd ea a3 80 bc
       0.030967088 -0.04491848 -0.04575338 -0.01570316
000070 d3 5c ac 3c ae 6b 76 bd d7 54 8e bc 22 71 6e bd
       0.021040356 -0.060161285 -0.01737444 -0.05821336
000080 c0 f4 e3 bc 92 22 d9 bc 23 2f 08 be 13 fc 38 3b
       -0.027826667 -0.026505742 -0.13299231 0.002822642
000090 5b 02 cb bd 1c 72 4b bd 8a 9b 15 bd e1 6f c5 3d
       -0.09912559 -0.04966937 -0.036525287 0.0964048
0000a0 03 3e c5 bc d3 03 5f 3d 4d 06 30 bd cc 97 ab 3c
       -0.024077421 0.054447006 -0.04297476 0.020946406
0000b0 cc 6b 13 bd 68 e7 c8 bc ea 83 91 3d fa 1a 93 bc
       -0.035991475 -0.024524406 0.07105239 -0.0179572
0000c0 aa dd f3 bc d4 69 e5 3d 2e 4a fe bc 71 7f 32 3d
       -0.029768784 0.11201826 -0.031041231 0.04357857
0000d0 38 d2 fd 3c 38 73 aa bc d1 96 d0 bc 09 43 46 3b
       0.03098403 -0.020806894 -0.02546254 0.0030252358
0000e0 71 4b a5 bd 46 f1 55 3d c3 c4 f3 bc 42 26 e5 3c
       -0.0807103 0.05223205 -0.02975691 0.027972344
0000f0 d8 94 c9 3c 0a 93 74 3d 78 26 1d bd fb c5 61 bd
       0.024607107 0.05971054 -0.038366765 -0.05512045
000100 15 cd 82 bc 6e ce 08 bd a0 54 e7 3c 28 be ec 3d
       -0.015966931 -0.03339999 0.028238595 0.11559707
000110 b9 93 94 3d 1e 0d 20 bd a7 bf 09 3d c0 72 33 bd
       0.07254738 -0.03907501 0.03363004 -0.043810606
000120 10 cf 87 3d 08 4d 0d 3d ba 04 c4 bc 91 cb b5 bc
       0.06631291 0.03449729 -0.023928035 -0.022191795
000130 88 17 e7 bd a1 6c 23 3d 12 cf fd 3c 3b 31 f1 3c
       -0.11283785 0.03989852 0.030982528 0.02944242
000140 01 d6 b0 bc d2 7f db 3c ac 68 e2 3d f9 29 15 3d
       -0.02158642 0.026794348 0.11055121 0.03641698
000150 cb e6 d1 3b 29 83 06 bd 91 88 d9 bc db e6 a4 3d
       0.0064056865 -0.032839928 -0.026554378 0.08051845
000160 79 cb a2 bd c3 c4 a3 bd 8e ed 0a bd 28 44 ec bb
       -0.079489656 -0.07996514 -0.033917956 -0.0072102733
000170 44 fb 20 bd e9 e9 b5 3c ad b5 9e bd 03 05 1e 3d
       -0.039302126 0.022206264 -0.07749496 0.038579
000180 0f 75 19 3d 44 3c 3d 3d 09 c4 e9 3c 27 23 88 bd
       0.03746515 0.046200052 0.02853586 -0.0664733
000190 02 d5 eb 3c 2d b0 a9 bc eb 69 e9 3c f0 0f b1 3d
       0.028788093 -0.02071389 0.028492888 0.08645618
0001a0 66 b5 3e 3d 94 c5 20 bd 11 7c 31 3d 31 aa b8 3d
       0.046559714 -0.039250925 0.04333121 0.090168364
0001b0 ee ea ed 3c 12 0d cb 3c 4a 5b d1 bc 7b 41 a3 3d
       0.029042687 0.024786506 -0.025556225 0.07971474
0001c0 0b 6e 34 bd b6 1b 8c bc 92 25 04 3d 16 5e 11 b9
       -0.044050258 -0.017103057 0.032262392 -0.00013863327
0001d0 cc b6 39 bd 5d c8 c8 3d 62 69 61 3c 0b 56 d4 bc
       -0.045340344 0.09803841 0.013758035 -0.025919935
0001e0 5e 16 70 3d 85 73 ad bc 99 09 b9 bc 6f 36 1f bd
       0.05861508 -0.021173248 -0.022587584 -0.03887027
0001f0 d0 bb b5 3c 83 c7 a5 3d 15 a1 f1 bc 74 34 e9 3c
       0.022184283 0.080946945 -0.029495755 0.028467394
000200 3d b0 d7 3c 45 89 1d bd 78 e0 c8 bc b0 5b 86 bd
       0.026329154 -0.03846099 -0.024521098 -0.06560457
000210 b7 aa cc 3c ea e3 e8 3c d1 70 b3 bc 37 af d9 3c
       0.024983747 0.02842899 -0.021904381 0.026572807
000220 d3 97 aa bc ae 8f 11 bc 96 5b d4 bc d6 7f 65 3d
       -0.020824349 -0.008884354 -0.025922578 0.056030117
000230 b8 f6 63 bd cc 5f 90 3d 73 44 81 bd d7 69 86 3d
       -0.05565521 0.07049522 -0.06311884 0.06563156
000240 0f 89 15 3d 67 ef 08 3d e8 49 40 bd de a6 b8 bc
       0.036507662 0.033431437 -0.046945482 -0.022540506
000250 6e c1 01 bd cf c0 ca 3c ed 71 d6 3c b1 6a a6 3d
       -0.03167861 0.024750141 0.02617737 0.081258185
000260 72 49 b4 bc b6 fc dd bc 65 a4 5c bd f2 72 e0 bc
       -0.022007678 -0.027098041 -0.053867716 -0.02739856
000270 c4 30 49 3d 3f f5 fd 3c 8f d1 a0 bd c7 a6 fe 3c
       0.049118772 0.031000732 -0.0785247 0.031085385
000280 8d 8d b1 bc 46 b4 00 bd a5 31 36 3d 81 85 fc bc
       -0.021673942 -0.031421922 0.04448094 -0.030825378
000290 84 9c 52 bd a8 ab 72 bd ca 41 bb bc 28 94 80 3c
       -0.051418796 -0.059245735 -0.02285852 0.015695646
0002a0 91 56 58 bd 85 c4 61 bd ae 3a d3 3d a7 a3 d5 bc
       -0.05281693 -0.055119056 0.10313927 -0.026079012
0002b0 46 11 3c 3b b0 4a 35 bd 25 c8 0d bd 8c cb a0 3d
       0.002869682 -0.04426068 -0.0346147 0.078513235
0002c0 7e 4d ea bd 25 7a 84 bd cf 41 06 bd 99 59 79 bd
       -0.11440562 -0.0646861 -0.032777604 -0.060876463
0002d0 9b 0a 0e 3d 5d fd cf bc 69 d0 2f 3d ed ca d8 bc
       0.034678083 -0.025389368 0.042923365 -0.02646395
0002e0 04 4e 96 3c 90 7d 8c 3c a5 73 15 3d 80 22 36 bd
       0.018347748 0.017149717 0.03648724 -0.044466496
0002f0 16 da 1a bd fd fe 5d bd 5b 53 87 3d 59 7b 9f 3c
       -0.03780564 -0.054198254 0.06607696 0.019467996
000300 f3 87 17 3d c3 30 02 3d 48 7b cb bc 19 66 c5 3d
       0.036994886 0.031784784 -0.024839059 0.09638614
000310 3f e3 de 3c bd b0 94 bd 88 35 09 3d d1 91 86 3d
       0.027207969 -0.07260273 0.033498317 0.06570781
000320 a8 ca ca 3c 44 6a e8 bc d9 5f aa bb c9 df 00 3d
       0.024754837 -0.028370984 -0.005199414 0.03146342
000330 86 01 fe bc 4f eb ca 3d 44 e5 99 3d fd ea 8f bc
       -0.031006586 0.09908163 0.07514432 -0.017568106
000340 9a a4 0e 3d 3a 02 95 3d 8f 4e d3 bc 6b a1 f9 3c
       0.034824945 0.07275815 -0.025794296 0.030472478
000350 9d ba 26 3d 30 32 da bb 92 0d 9d bc af c0 b9 3c
       0.040705312 -0.006658815 -0.01917151 0.022674887
000360 b1 d0 9b bc e4 2e 9d bd 0d 59 b2 3c 67 36 da bc
       -0.01902041 -0.07674959 0.021770978 -0.02663727
000370 c0 44 e5 3c c3 48 db bc 12 51 89 bd 3b c1 07 3e
       0.027986884 -0.026768094 -0.06704916 0.13257305
000380 d3 87 31 3d 44 e1 88 bc 3c 61 31 3d 52 2e cb bb
       0.043342423 -0.016708978 0.04330562 -0.00620059
000390 56 a1 70 3d 3a fe d8 3d f5 99 b2 bc b9 13 00 3d
       0.058747612 0.10595365 -0.021801928 0.03126881
0003a0 c2 73 47 3d 4e 21 1e bd ae 97 cf 3d 61 83 d3 bc
       0.04869438 -0.03860598 0.101363525 -0.025819482
0003b0 aa 93 fc 3c 89 aa 73 3d e6 bb f5 3c 94 32 da bc
       0.03083213 0.059488807 0.029996824 -0.026635446
0003c0 2b 80 aa 3d d8 a9 cd bc 05 37 0b 3d cd 0b 9c bd
       0.08325227 -0.025105402 0.033988018 -0.07619438
0003d0 ba 1a df 3c 37 00 b5 3c 50 e2 b5 bc 74 db 86 3d
       0.027234424 0.022094829 -0.02220264 0.06584826
0003e0 63 d3 07 bd 20 a9 d0 3c 24 08 8e bc e0 e5 94 3d
       -0.03316058 0.02547127 -0.017337866 0.07270408
0003f0 07 6f 95 3c 58 48 21 3d 5a a5 7e 3d 01 89 eb 3a
       0.018241419 0.039375633 0.06216941 0.0017969907
